…
    F_use_input_norm: True
    F_use_range_norm: False
    G_optimizer_betas: [0.9, 0.999]
    G_scheduler_restart_weights: 1
    G_optimizer_wd: 0
    G_optimizer_reuse: False
    G_param_strict: True
    E_param_strict: True
    E_decay: 0
  ]
  opt_path: options/train_dncnn.json
  is_train: True
  find_unused_parameters: True
  use_static_graph: False
  dist: False
  num_gpu: 1

23-04-06 19:48:32.688 : Random seed: 3220
23-04-06 19:48:34.059 : Number of train images: 200, iters: 4
23-04-06 19:48:38.517 : 
Networks name: DnCNN
Params number: 557057
Net structure:
DnCNN(
  (model): Sequential(
    (0): Conv2d(1, 64, kernel_size=(3, 3), stride=(1, 1), padding=(1, 1))
    (1): ReLU(inplace=True)
    (2): Conv2d(64, 64, kernel_size=(3, 3), stride=(1, 1), padding=(1, 1))
    (3): BatchNorm2d(64, eps=0.0001, momentum=0.9, affine=True, track_running_stats=True)
    (4): ReLU(inplace=True)
    (5): Conv2d(64, 64, kernel_size=(3, 3), stride=(1, 1), padding=(1, 1))
    (6): BatchNorm2d(64, eps=0.0001, momentum=0.9, affine=True, track_running_stats=True)
    (7): ReLU(inplace=True)
    (8): Conv2d(64, 64, kernel_size=(3, 3), stride=(1, 1), padding=(1, 1))
    (9): BatchNorm2d(64, eps=0.0001, momentum=0.9, affine=True, track_running_stats=True)
    (10): ReLU(inplace=True)
    (11): Conv2d(64, 64, kernel_size=(3, 3), stride=(1, 1), padding=(1, 1))
    (12): BatchNorm2d(64, eps=0.0001, momentum=0.9, affine=True, track_running_stats=True)
    (13): ReLU(inplace=True)
    (14): Conv2d(64, 64, kernel_size=(3, 3), stride=(1, 1), padding=(1, 1))
    (15): BatchNorm2d(64, eps=0.0001, momentum=0.9, affine=True, track_running_stats=True)
    (16): ReLU(inplace=True)
    (17): Conv2d(64, 64, kernel_size=(3, 3), stride=(1, 1), padding=(1, 1))
    (18): BatchNorm2d(64, eps=0.0001, momentum=0.9, affine=True, track_running_stats=True)
    (19): ReLU(inplace=True)
    (20): Conv2d(64, 64, kernel_size=(3, 3), stride=(1, 1), padding=(1, 1))
    (21): BatchNorm2d(64, eps=0.0001, momentum=0.9, affine=True, track_running_stats=True)
    (22): ReLU(inplace=True)
    (23): Conv2d(64, 64, kernel_size=(3, 3), stride=(1, 1), padding=(1, 1))
    (24): BatchNorm2d(64, eps=0.0001, momentum=0.9, affine=True, track_running_stats=True)
    (25): ReLU(inplace=True)
    (26): Conv2d(64, 64, kernel_size=(3, 3), stride=(1, 1), padding=(1, 1))
    (27): BatchNorm2d(64, eps=0.0001, momentum=0.9, affine=True, track_running_stats=True)
    (28): ReLU(inplace=True)
    (29): Conv2d(64, 64, kernel_size=(3, 3), stride=(1, 1), padding=(1, 1))
    (30): BatchNorm2d(64, eps=0.0001, momentum=0.9, affine=True, track_running_stats=True)
    (31): ReLU(inplace=True)
    (32): Conv2d(64, 64, kernel_size=(3, 3), stride=(1, 1), padding=(1, 1))
    (33): BatchNorm2d(64, eps=0.0001, momentum=0.9, affine=True, track_running_stats=True)
    (34): ReLU(inplace=True)
    (35): Conv2d(64, 64, kernel_size=(3, 3), stride=(1, 1), padding=(1, 1))
    (36): BatchNorm2d(64, eps=0.0001, momentum=0.9, affine=True, track_running_stats=True)
    (37): ReLU(inplace=True)
    (38): Conv2d(64, 64, kernel_size=(3, 3), stride=(1, 1), padding=(1, 1))
    (39): BatchNorm2d(64, eps=0.0001, momentum=0.9, affine=True, track_running_stats=True)
    (40): ReLU(inplace=True)
    (41): Conv2d(64, 64, kernel_size=(3, 3), stride=(1, 1), padding=(1, 1))
    (42): BatchNorm2d(64, eps=0.0001, momentum=0.9, affine=True, track_running_stats=True)
    (43): ReLU(inplace=True)
    (44): Conv2d(64, 64, kernel_size=(3, 3), stride=(1, 1), padding=(1, 1))
    (45): BatchNorm2d(64, eps=0.0001, momentum=0.9, affine=True, track_running_stats=True)
    (46): ReLU(inplace=True)
    (47): Conv2d(64, 1, kernel_size=(3, 3), stride=(1, 1), padding=(1, 1))
  )
)

23-04-06 19:48:38.655 : 
 |  mean  |  min   |  max   |  std   || shape               
 |  0.002 | -0.068 |  0.066 |  0.025 | torch.Size([64, 1, 3, 3]) || model.0.weight
 |  0.000 |  0.000 |  0.000 |  0.000 | torch.Size([64]) || model.0.bias
 |  0.000 | -0.035 |  0.036 |  0.008 | torch.Size([64, 64, 3, 3]) || model.2.weight
 |  0.000 |  0.000 |  0.000 |  0.000 | torch.Size([64]) || model.2.bias
…
    G_optimizer_reuse: False
    G_param_strict: True
    E_param_strict: True
    E_decay: 0
  ]
  opt_path: options/train_dncnn.json
  is_train: True
  find_unused_parameters: True
  use_static_graph: False
  dist: False
  num_gpu: 1

23-04-10 14:13:38.968 : Random seed: 6262
23-04-10 14:13:38.975 : Number of train images: 200, iters: 4
23-04-10 14:13:39.368 : 
Networks name: DnCNN
Params number: 4469248
Net structure:
DnCNN(
  (model): Sequential(
    (0): PHConv2d(in_features=64, out_features=64, bias=True)
    (1): ReLU(inplace=True)
    (2): PHConv2d(in_features=64, out_features=64, bias=True)
    (3): BatchNorm2d(64, eps=0.0001, momentum=0.9, affine=True, track_running_stats=True)
    (4): ReLU(inplace=True)
    (5): PHConv2d(in_features=64, out_features=64, bias=True)
    (6): BatchNorm2d(64, eps=0.0001, momentum=0.9, affine=True, track_running_stats=True)
    (7): ReLU(inplace=True)
    (8): PHConv2d(in_features=64, out_features=64, bias=True)
    (9): BatchNorm2d(64, eps=0.0001, momentum=0.9, affine=True, track_running_stats=True)
    (10): ReLU(inplace=True)
    (11): PHConv2d(in_features=64, out_features=64, bias=True)
    (12): BatchNorm2d(64, eps=0.0001, momentum=0.9, affine=True, track_running_stats=True)
    (13): ReLU(inplace=True)
    (14): PHConv2d(in_features=64, out_features=64, bias=True)
    (15): BatchNorm2d(64, eps=0.0001, momentum=0.9, affine=True, track_running_stats=True)
    (16): ReLU(inplace=True)
    (17): PHConv2d(in_features=64, out_features=64, bias=True)
    (18): BatchNorm2d(64, eps=0.0001, momentum=0.9, affine=True, track_running_stats=True)
    (19): ReLU(inplace=True)
    (20): PHConv2d(in_features=64, out_features=64, bias=True)
    (21): BatchNorm2d(64, eps=0.0001, momentum=0.9, affine=True, track_running_stats=True)
    (22): ReLU(inplace=True)
    (23): PHConv2d(in_features=64, out_features=64, bias=True)
    (24): BatchNorm2d(64, eps=0.0001, momentum=0.9, affine=True, track_running_stats=True)
    (25): ReLU(inplace=True)
    (26): PHConv2d(in_features=64, out_features=64, bias=True)
    (27): BatchNorm2d(64, eps=0.0001, momentum=0.9, affine=True, track_running_stats=True)
    (28): ReLU(inplace=True)
    (29): PHConv2d(in_features=64, out_features=64, bias=True)
    (30): BatchNorm2d(64, eps=0.0001, momentum=0.9, affine=True, track_running_stats=True)
    (31): ReLU(inplace=True)
    (32): PHConv2d(in_features=64, out_features=64, bias=True)
    (33): BatchNorm2d(64, eps=0.0001, momentum=0.9, affine=True, track_running_stats=True)
    (34): ReLU(inplace=True)
    (35): PHConv2d(in_features=64, out_features=64, bias=True)
    (36): BatchNorm2d(64, eps=0.0001, momentum=0.9, affine=True, track_running_stats=True)
    (37): ReLU(inplace=True)
    (38): PHConv2d(in_features=64, out_features=64, bias=True)
    (39): BatchNorm2d(64, eps=0.0001, momentum=0.9, affine=True, track_running_stats=True)
    (40): ReLU(inplace=True)
    (41): PHConv2d(in_features=64, out_features=64, bias=True)
    (42): BatchNorm2d(64, eps=0.0001, momentum=0.9, affine=True, track_running_stats=True)
    (43): ReLU(inplace=True)
    (44): PHConv2d(in_features=64, out_features=64, bias=True)
    (45): BatchNorm2d(64, eps=0.0001, momentum=0.9, affine=True, track_running_stats=True)
    (46): ReLU(inplace=True)
    (47): PHConv2d(in_features=64, out_features=64, bias=True)
  )
)

23-04-10 14:13:39.407 : 
 |  mean  |  min   |  max   |  std   || shape               
 |  0.000 |  0.000 |  0.000 |  0.000 | torch.Size([64]) || model.0.bias
 | -0.000 | -0.027 |  0.027 |  0.016 | torch.Size([64, 64, 64]) || model.0.A
…
    G_optimizer_reuse: False
    G_param_strict: True
    E_param_strict: True
    E_decay: 0
  ]
  opt_path: options/train_dncnn.json
  is_train: True
  find_unused_parameters: True
  use_static_graph: False
  dist: False
  num_gpu: 1

23-04-29 19:31:30.554 : Random seed: 8825
23-04-29 19:31:31.809 : Number of train images: 200, iters: 4
23-04-29 19:31:35.977 : 
Networks name: DnCNN
Params number: 183115
Net structure:
DnCNN(
  (model): Sequential(
    (0): PHConv2d(in_features=3, out_features=64, bias=True)
    (1): ReLU(inplace=True)
    (2): PHConv2d(in_features=64, out_features=64, bias=True)
    (3): BatchNorm2d(63, eps=0.0001, momentum=0.9, affine=True, track_running_stats=True)
    (4): ReLU(inplace=True)
    (5): PHConv2d(in_features=64, out_features=64, bias=True)
    (6): BatchNorm2d(63, eps=0.0001, momentum=0.9, affine=True, track_running_stats=True)
    (7): ReLU(inplace=True)
    (8): PHConv2d(in_features=64, out_features=64, bias=True)
    (9): BatchNorm2d(63, eps=0.0001, momentum=0.9, affine=True, track_running_stats=True)
    (10): ReLU(inplace=True)
    (11): PHConv2d(in_features=64, out_features=64, bias=True)
    (12): BatchNorm2d(63, eps=0.0001, momentum=0.9, affine=True, track_running_stats=True)
    (13): ReLU(inplace=True)
    (14): PHConv2d(in_features=64, out_features=64, bias=True)
    (15): BatchNorm2d(63, eps=0.0001, momentum=0.9, affine=True, track_running_stats=True)
    (16): ReLU(inplace=True)
    (17): PHConv2d(in_features=64, out_features=64, bias=True)
    (18): BatchNorm2d(63, eps=0.0001, momentum=0.9, affine=True, track_running_stats=True)
    (19): ReLU(inplace=True)
    (20): PHConv2d(in_features=64, out_features=64, bias=True)
    (21): BatchNorm2d(63, eps=0.0001, momentum=0.9, affine=True, track_running_stats=True)
    (22): ReLU(inplace=True)
    (23): PHConv2d(in_features=64, out_features=64, bias=True)
    (24): BatchNorm2d(63, eps=0.0001, momentum=0.9, affine=True, track_running_stats=True)
    (25): ReLU(inplace=True)
    (26): PHConv2d(in_features=64, out_features=64, bias=True)
    (27): BatchNorm2d(63, eps=0.0001, momentum=0.9, affine=True, track_running_stats=True)
    (28): ReLU(inplace=True)
    (29): PHConv2d(in_features=64, out_features=64, bias=True)
    (30): BatchNorm2d(63, eps=0.0001, momentum=0.9, affine=True, track_running_stats=True)
    (31): ReLU(inplace=True)
    (32): PHConv2d(in_features=64, out_features=64, bias=True)
    (33): BatchNorm2d(63, eps=0.0001, momentum=0.9, affine=True, track_running_stats=True)
    (34): ReLU(inplace=True)
    (35): PHConv2d(in_features=64, out_features=64, bias=True)
    (36): BatchNorm2d(63, eps=0.0001, momentum=0.9, affine=True, track_running_stats=True)
    (37): ReLU(inplace=True)
    (38): PHConv2d(in_features=64, out_features=64, bias=True)
    (39): BatchNorm2d(63, eps=0.0001, momentum=0.9, affine=True, track_running_stats=True)
    (40): ReLU(inplace=True)
    (41): PHConv2d(in_features=64, out_features=64, bias=True)
    (42): BatchNorm2d(63, eps=0.0001, momentum=0.9, affine=True, track_running_stats=True)
    (43): ReLU(inplace=True)
    (44): PHConv2d(in_features=64, out_features=64, bias=True)
    (45): BatchNorm2d(63, eps=0.0001, momentum=0.9, affine=True, track_running_stats=True)
    (46): ReLU(inplace=True)
    (47): PHConv2d(in_features=64, out_features=3, bias=True)
  )
)

23-04-29 19:31:36.106 : 
 |  mean  |  min   |  max   |  std   || shape               
 |  0.000 |  0.000 |  0.000 |  0.000 | torch.Size([64]) || model.0.bias
 | -0.061 | -0.547 |  0.509 |  0.339 | torch.Size([3, 3, 3]) || model.0.A
 | -0.001 | -0.167 |  0.167 |  0.097 | torch.Size([3, 21, 1, 3, 3]) || model.0.F
…
